model/model.pkl (torch_old, 251493 bytes, 35 tensors)

weight f4 [29, 11]
000000 cd 3a 7c ba 1b a1 ef ba 3c 2e 81 3c 33 b6 8a 3a
       -0.0009621799 -0.0018282266 0.015769117 0.0010582864
000010 14 c0 b8 b9 ab b1 d8 3b 5b 11 b8 ba cc 41 3e bc
       -0.00035238324 0.0066129765 -0.0014043258 -0.011612367
000020 a4 1d 6b 3b 31 28 53 3a 7b 99 a0 3b fa 35 3a 3e
       0.0035875821 0.0008055 0.004901109 0.18184653
000030 0d 40 6c 3d 55 73 0a be a9 9e 6b 3d 05 db ec 3d
       0.05767827 -0.13520558 0.057524357 0.11565212
000040 bc c8 9a 3d 0a 85 cf be 01 5e 72 3e ca 47 68 3d
       0.07557818 -0.40531188 0.23668672 0.05670909
000050 19 09 2b 3d cf f3 03 bd ed b2 e8 bd 31 74 fe 3e
       0.041756723 -0.032214936 -0.113622524 0.49698022
000060 66 90 01 3e 92 1a 3c be be 03 51 bc fa fe ac 3d
       0.1265274 -0.18369511 -0.01275724 0.084470704
000070 d3 54 59 bd 76 8e 0c be 2d 2b 56 3e 97 a1 fc bc
       -0.05305941 -0.1372622 0.20914908 -0.03083877
000080 ea 8b 7a 3d b5 00 95 3c 8d 82 05 3e 1b 84 a0 3e
       0.06116859 0.018188814 0.13038082 0.31350788
000090 22 c3 1a 3e 16 c7 85 bd 63 a0 bd 3b 5d 9e 90 be
       0.151135 -0.06532113 0.005786942 -0.28245822
0000a0 67 fd 7f be 45 3d dc 3c bb 77 84 bc b0 19 3f bc
       -0.24999009 0.026884684 -0.016170373 -0.011663839
0000b0 bf c1 8c 3e 54 9a 27 3f c0 e2 40 bf 6f 32 0d bf
       0.27491567 0.6546986 -0.75345993 -0.5515508
0000c0 c2 53 06 3f 7a dd 1a be a7 12 21 be 38 a1 40 3f
       0.52471554 -0.15123549 -0.15729772 0.75246
0000d0 1a 28 86 3e 96 da 9f bd 0d 39 ea 3e d8 27 6a be
       0.2620247 -0.07805364 0.4574665 -0.22866762
0000e0 c4 b2 80 be 94 0c 38 be fd 2a 2a be 24 b1 7c 3e
       -0.25136387 -0.17973548 -0.16617961 0.24676949
0000f0 a8 40 a2 3e 86 7c c9 be e4 3b 3d 3e 8b 24 6d 3f
       0.31689954 -0.39352816 0.18479878 0.92633885
000100 25 56 fd 3e c6 2f 65 3e 91 25 22 3f 85 ff 49 3e
       0.49479786 0.22381505 0.6333857 0.19726379
000110 9e 39 99 be 8a 91 9f be 78 e9 e0 3e e9 3f 9a 3e
       -0.2992677 -0.31165725 0.43928123 0.30126885
000120 b8 32 bd be 31 b3 0b 3f 55 d2 28 3f e3 21 28 3e
       -0.36952758 0.545703 0.6594594 0.16419177
000130 8a 68 e4 bd 6c 63 0c 3f 38 ed a9 3d b9 a7 47 be
       -0.11152752 0.54839206 0.08297199 -0.19497575
000140 78 ed fa be d7 6d b5 3e 06 6f 93 3e 48 f2 ed be
       -0.490093 0.35435364 0.28795642 -0.46473908
000150 be 3d bb 3e e8 65 ba 3d 12 00 c0 bd 58 a5 71 3d
       0.36570543 0.09101468 -0.093750134 0.058995575
000160 4c 9a d2 3e 32 6b 19 bf c0 77 d1 be 59 ba bb be
       0.41133344 -0.5992919 -0.40911674 -0.3666561
000170 c7 b5 3c 3d d9 14 16 3e 85 75 be be 54 3c 8c 3e
       0.046071794 0.1465639 -0.37199035 0.27389777
000180 f1 df 8c 3e c7 55 af be f3 a3 a5 3e aa 67 c8 bd
       0.27514604 -0.3424513 0.32351646 -0.09785397
000190 60 93 8a be 24 ce 1b bf 59 71 06 bf ca 97 99 3e
       -0.27065563 -0.6086142 -0.52516705 0.29998618
0001a0 e1 69 49 3c 71 f9 24 bf d9 aa b6 3e 50 d1 1d bc
       0.01229331 -0.6444312 0.3567722 -0.0096324235
0001b0 ab 55 7e be 5a 9b 4c 3e 36 d4 f3 3e b0 a8 9f be
       -0.24837367 0.19981137 0.47622842 -0.31183386
0001c0 a8 46 10 bf 8a b6 24 bf c3 ae 02 3f a7 54 01 3f
       -0.5635781 -0.6434103 0.51047915 0.50519794
0001d0 9a c9 60 be 1b fd 10 3f c4 4e 89 be b9 4b d3 be
       -0.21951905 0.5663621 -0.26817906 -0.4126871
0001e0 b9 08 0c 3f 24 94 c2 3e 4f de 16 be 8c 72 cd be
       0.5470081 0.38003647 -0.14733241 -0.40126455
0001f0 69 14 dd be 75 33 b6 3e 33 89 a3 3e cf 0a 9e 3d
       -0.43179634 0.35586134 0.31940612 0.07716905
000200 32 90 e1 3e 27 9b 82 be 93 b4 99 be 5c 37 4e 3e
       0.44055325 -0.25508997 -0.3002058 0.20138305
000210 3a 46 cd 3c e3 6d b0 bd 1a 68 f7 3e 45 8f ab 3d
       0.0250579 -0.08614709 0.4832161 0.08376936
000220 fc e9 99 be bd ee ad be 6c 11 8f 3e 8b d1 88 be
       -0.30061328 -0.33971205 0.2794298 -0.2672237
000230 24 2e 4d bc 64 5a 4e 3d 40 ce 88 bc d9 6a d0 3e
       -0.012523208 0.050379172 -0.01669991 0.40706518
000240 dd bf 61 bf 98 11 de be 9f 16 eb be 3f c6 f6 3e
       -0.88183385 -0.43372798 -0.45915696 0.48198125
000250 08 e5 12 3f 8f 48 cc 3e 12 28 8b 3e 50 48 85 bf
       0.57380724 0.39899108 0.2717901 -1.0412693
000260 88 55 3e bf 0a be 2d 3f 72 b0 22 bf 2a 0c 33 bf
       -0.7434926 0.678681 -0.63550484 -0.69940436
000270 1e 70 4c 3e 57 7f e3 3e ae 44 9a be a9 a9 6b be
       0.19964644 0.4443309 -0.30130523 -0.23013939
000280 be ee a9 3d 9e 78 ac be 87 82 2c 3d cc 97 bb 3e
       0.082974896 -0.33685774 0.042116668 0.3663925
000290 33 78 7c be 5d cd a2 3e 86 32 27 bd 16 33 32 bf
       -0.24655227 0.31797305 -0.040819667 -0.696092
0002a0 05 83 fa be fa 32 09 3f f0 f4 07 3f fa 8a 4a be
       -0.48928085 0.5359341 0.5310812 -0.19779578
0002b0 c5 27 49 3f 2e 2b 66 3e 24 28 8d be ef 9a 10 3f
       0.7857631 0.22477409 -0.27569687 0.5648641
0002c0 6a 0b 5c 3f d6 4f 94 be ed ce f4 be d4 af 2d be
       0.85954916 -0.2896716 -0.47814122 -0.16961604
0002d0 8f a2 c6 3d 79 16 db bd 5c 1b 41 3e 3d 74 1c 3f
       0.09698974 -0.10697646 0.18858093 0.61114866
0002e0 45 33 d7 3e 2c 6f a6 bd fc 67 23 be ec 19 e0 bc
       0.42031303 -0.08126673 -0.15957636 -0.02735611
0002f0 c1 a1 7b 3e 61 25 d9 3d 05 43 12 3d 92 f2 ec bd
       0.24573423 0.106028326 0.035708446 -0.11569704
000300 26 36 b3 be 07 0c b4 3d f4 c9 6f 3d f8 3b b8 be
       -0.3500225 0.087913565 0.058542207 -0.35983253
000310 20 ae 14 be cb c3 36 3e 4e a5 8d 3e d6 c0 ee 3e
       -0.14519548 0.17848127 0.2766518 0.46631497
000320 e2 f9 a5 3b 0e 15 8c be be 1a 9e 3e 73 e7 b6 3e
       0.0050651887 -0.27359813 0.30879778 0.35723457
000330 49 e5 82 3f 46 3f d0 bd be a9 03 bf 5f 02 54 3d
       1.0226222 -0.101683185 -0.5143088 0.051760074
000340 80 e9 c1 be d6 b6 d1 3e cf a4 02 bf c3 09 b0 be
       -0.3787346 0.40959805 -0.5103273 -0.34382448
000350 4a 23 92 be a7 19 c6 3e df ba 90 3e c1 d4 51 3e
       -0.28542548 0.38691446 0.2826757 0.20491315
000360 51 18 c6 3e 12 8d f5 be 30 c4 4e be 55 d2 aa 3e
       0.38690427 -0.4795919 -0.20192027 0.33363596
000370 ce 60 52 3e 89 f1 85 3d e2 77 79 be 53 a7 66 be
       0.2054474 0.0654021 -0.24362138 -0.22524767
000380 a3 2d ca 3e 0d 2b 9a 3e ce 0f aa bc b9 02 e4 3e
       0.39487943 0.3011097 -0.02075949 0.44533327
000390 8f 94 4a 3d 6c 20 c2 bd d4 13 10 3f 0c 62 0e be
       0.049458083 -0.0947884 0.56280255 -0.1390459
0003a0 ea 97 5e be 18 07 05 3f cb 52 59 3f a2 79 1f bf
       -0.21737638 0.5196395 0.8489196 -0.6229497
0003b0 af ec 16 bf e0 fb 54 bd e8 8d 10 bf 02 fb 99 3f
       -0.589549 -0.05199802 -0.5646653 1.2029727
0003c0 06 f0 5b 3f 8f 85 37 bf 90 b3 df 3e 0d 9d 92 be
       0.8591312 -0.7168817 0.43691683 -0.28635445
0003d0 87 3f ca be 8a 1d b4 be 4a c0 b5 3d ea 19 4f 3d
       -0.39501593 -0.35178787 0.08874567 0.050561823
0003e0 d1 fd a3 be 31 07 fa 3e 1b bc 75 3e 1a fb ac 3d
       -0.32029584 0.48833612 0.23997538 0.08446331
0003f0 0f 55 a0 3e cd 1e d4 3d 28 31 92 bd cd 32 c0 be
       0.31314895 0.10357437 -0.07138282 -0.37538758

weight f4 [12, 6]
000000 0f b0 a7 3b db 84 07 3c c8 9a 90 bb 41 68 18 bb
       0.0051174234 0.008271421 -0.0044129826 -0.00232555
000010 7d a4 b6 38 28 93 95 bb ce f6 0c bf f4 d1 22 bf
       8.7090746e-05 -0.0045646615 -0.55064094 -0.63601613
000020 93 2f 37 bd a5 48 6b be 96 9c cb bd 3d 64 23 bf
       -0.044723105 -0.2297693 -0.09941976 -0.63824826
000030 5a 7c 0a 3f 98 bc bd 3e c2 84 60 3e 69 3f 43 be
       0.54095995 0.37057948 0.21925643 -0.19067158
000040 d4 08 92 bd d7 19 ed 3e c9 d2 8b 3e 36 ac e6 3d
       -0.0713059 0.46308777 0.27309254 0.112633154
000050 54 76 b8 be 47 70 52 3e f0 e5 4c be 34 f4 88 be
       -0.36027777 0.20550643 -0.20009589 -0.26748812
000060 55 b7 42 be 61 d0 5e be bc ae 9c 3e bc ff ff bd
       -0.19015248 -0.21759178 0.30602062 -0.12499949
000070 c7 1f 65 3e 19 61 f9 bc 25 54 ae be b8 0c dd be
       0.22375403 -0.030441808 -0.34048572 -0.43173766
000080 f0 10 94 3c 3d c8 7e 3d 71 55 93 be 1d 2f 94 3e
       0.018074483 0.06220268 -0.28776124 0.28942195
000090 21 47 c9 3e 1f e6 33 be 8d 83 93 3e dc 55 48 3e
       0.3931208 -0.17568253 0.28811303 0.19564003
0000a0 79 f2 c8 3d 40 37 4b be cc bb bf bd da 86 75 3d
       0.09811873 -0.19845295 -0.09361991 0.059943058
0000b0 d5 59 99 be b5 ef f9 bd 85 c7 36 bf 1b 90 53 3e
       -0.2995135 -0.122039236 -0.7139819 0.2066044
0000c0 04 71 d5 be 21 2d 39 bd ce f6 a6 be 74 a2 8a 3e
       -0.41687787 -0.045209054 -0.32610172 0.27077067
0000d0 b8 81 b0 3d 2c b1 28 be d3 14 8b be e4 b2 87 be
       0.08618492 -0.16473836 -0.27164325 -0.2650367
0000e0 56 98 26 bf 91 f3 df be 69 05 06 3e 23 b6 39 3c
       -0.65076196 -0.43740514 0.13088001 0.011334929
0000f0 04 95 05 be 88 4b 88 be 2e 26 87 be 70 89 25 bd
       -0.13045126 -0.26620126 -0.26396316 -0.040414274
000100 2d 3b db be c7 81 9d be 86 e4 69 be 48 66 32 bf
       -0.42818585 -0.30763075 -0.22841081 -0.6968732
000110 08 e2 f0 3d 88 8b db 3e cf 52 b4 3a c1 d1 f7 3e
       0.11761862 0.4287989 0.0013757589 0.48402217

weight f4 [6, 4]
000000 c9 dc da bb 83 07 ee bb 11 ad 5d bc 5d a1 c6 3b
       -0.0066791517 -0.007264079 -0.013530032 0.0060617165
000010 b3 0b c8 bd 4e 4d 12 3d 35 eb 94 3d cd 4f 34 3d
       -0.097678564 0.035718255 0.07271425 0.044021416
000020 45 93 8e be 68 1d a3 3e d8 22 43 3e 54 f4 8e 3e
       -0.27846733 0.31858373 0.1905626 0.27920783
000030 57 8f 86 be e0 48 ba 3e 3f 82 78 3e 15 d5 8f 3e
       -0.26281235 0.36383724 0.24268435 0.28092256
000040 d2 11 78 3e 09 b6 ae be ba f9 8f be 23 83 91 be
       0.24225548 -0.34123257 -0.28120214 -0.28420362
000050 62 d3 bc 3d 41 46 e3 3c bd 93 d3 bd 6b d8 2c be
       0.092200056 0.02774346 -0.10330913 -0.16879432

weight f4 [3, 3]
000000 ca b6 7c bb b2 dd 66 3b 14 a7 54 bb 2d 21 0a 3e
       -0.00385611 0.0035227356 -0.003244822 0.13489218
000010 29 93 0e bd 0f 57 a4 bb 7c 19 03 bf 6c 50 13 3f
       -0.03480831 -0.005015261 -0.5121076 0.5754459
000020 b5 96 17 3f
       0.59214336

weight f4 [5, 4]
000000 f7 93 37 39 cf 15 5c 3b eb b5 b6 bb 88 7c 71 3c
       0.00017507361 0.0033582335 -0.0055758855 0.014739163
000010 d6 09 c7 3e c5 e2 08 3d fa 84 55 be 8d 68 76 be
       0.38874692 0.03341939 -0.20851508 -0.2406332
000020 f5 76 9e 3e 41 67 15 3e 5d a3 85 be c5 fa cb be
       0.30950132 0.1459017 -0.261012 -0.3983976
000030 c7 a2 58 bc 67 6e 2d bd db a3 47 3d 20 bf 25 3d
       -0.013222403 -0.042341616 0.04874025 0.040465474
000040 51 ab e9 3d 41 26 66 3e 8b 45 4f bf 86 24 87 bf
       0.11409629 0.2247553 -0.8096549 -1.0558021

weight f4 [3, 3]
000000 de 4f 08 3a 4c 38 ad 3a f8 df 81 bb 7f a4 92 3e
       0.00051998894 0.001321563 -0.0039634667 0.28641126
000010 93 cf fc 3e 8d c1 bd 3e 80 fa 74 be 47 90 16 be
       0.49377117 0.3706173 -0.23923683 -0.14703475
000020 c3 43 d3 bd
       -0.10315659

weight f4 [3]
000000 2a 17 8a 3f 0c 5e 15 3f 3a f9 73 3f
       1.0788319 0.5834663 0.95302165

bias f4 [3]
000000 26 52 e6 be 45 28 56 3f af fe 4d 3f
       -0.4498455 0.83655196 0.8046674

running_mean f4 [3]
000000 62 de dd bc b5 e0 76 3b cf 97 c4 bb
       -0.02708358 0.0037670557 -0.0059995423

running_var f4 [3]
000000 da 6b 7a 3f d8 c1 1f 3f 96 db 72 3f
       0.9782082 0.6240516 0.9486631

weight f4 [300, 34]
000000 d5 ae d1 3e 37 3f 98 3d 06 39 35 be d6 50 50 be
       0.409537 0.07433932 -0.17697534 -0.20343336
000010 85 31 d7 3e 40 a1 f3 3e c3 4a f9 be a1 ea d5 3e
       0.42029968 0.4758396 -0.4868985 0.4178057
000020 eb 92 38 3f aa b0 01 3e 9d fb 21 3d ee d4 82 3e
       0.7209918 0.12665048 0.039546598 0.25553077
000030 92 13 86 3e d6 85 ee be c8 79 43 bd 14 45 27 be
       0.26186806 -0.46586484 -0.04772356 -0.16334945
000040 dd 75 d5 bd d1 52 9e 3e 2a f7 b0 be bd 80 35 be
       -0.10422871 0.3092256 -0.3456357 -0.17724891
000050 5f 85 37 be ec 1c 39 bf 83 71 23 3f c3 e1 08 3f
       -0.17921971 -0.72309756 0.6384508 0.53469485
000060 55 23 32 be 62 fe 27 3e 38 96 98 3d 4c 4e 9c 3d
       -0.1739629 0.16405633 0.07450527 0.076321214
000070 2c 47 95 be 5a 96 c5 be 5c 6e f9 be 90 52 b1 3e
       -0.29155862 -0.38591272 -0.4871701 0.34633303
000080 09 ea b1 bd d9 72 fd be 6e cc 2a bd 3b 18 d9 3e
       -0.08687217 -0.49501684 -0.041698866 0.424013
000090 19 99 47 3f a5 e9 ad 3e fd dd ed bc 9c 2b 61 3e
       0.77967983 0.3396732 -0.029036516 0.21989292
0000a0 9d ce 2c 3f d4 5d 0d bf 5c aa 06 bf 43 ef be 3e
       0.67502767 -0.55221295 -0.526037 0.37291917
0000b0 1d f6 cd be c2 b4 1e 3e 7a 7c c6 bd 67 08 0a 3e
       -0.40226832 0.15498641 -0.09691711 0.13479768
0000c0 84 23 88 3e c7 d4 49 be ba 7a 86 be 4a b2 14 bd
       0.26589596 -0.19710074 -0.26265508 -0.036302842
0000d0 54 6b 28 3e 35 97 d0 3d 25 2f 43 3e b8 d9 2b 3f
       0.16447192 0.101850905 0.19060953 0.6712909
0000e0 a0 46 eb be 46 05 10 bf 7c 42 03 3e a9 f3 a7 3c
       -0.4595232 -0.56258047 0.1281833 0.020501928
0000f0 d1 00 b5 be 73 02 65 be a1 a6 b9 3e e6 12 a4 3e
       -0.35352185 -0.22364216 0.3625994 0.32045668
000100 7e 85 f5 3e b2 c3 cb 3e f3 b6 da bd 98 dd 79 be
       0.4795341 0.3979774 -0.10679426 -0.24400938
000110 b2 43 fa be 91 ec 0a 3e 8c 21 71 3e 64 fc b3 3e
       -0.48879772 0.13566805 0.23547953 0.35153496
000120 66 b2 25 be ac da 84 be ca 5c 30 3e 57 80 b2 be
       -0.16181335 -0.25948083 0.17222896 -0.3486354
000130 07 8d d2 bd de 6e 41 3e aa 59 8c 3d 04 4d 51 3e
       -0.10280805 0.18889949 0.068530396 0.20439535
000140 3e 46 43 3e 45 64 73 3d 53 8d 3c be 9b ff 70 bd
       0.19069764 0.059421796 -0.18413286 -0.058837514
000150 03 28 a1 be 30 b1 c6 3e a3 49 d2 be 3e 7d e1 be
       -0.3147584 0.38807058 -0.41071805 -0.44040865
000160 d4 e8 e0 be 38 22 fa 3d d5 8e 42 be 1e c3 a2 be
       -0.43927634 0.12213558 -0.18999799 -0.31789488
000170 58 24 ef bd 49 2a 3c 3e 61 46 b2 3e f6 bd 54 3e
       -0.11676854 0.18375506 0.3481932 0.2077559
000180 a0 00 b5 be c1 c1 ad be 20 7a ad 39 09 66 b6 3d
       -0.3535204 -0.33936885 0.00033088122 0.089061804
000190 4a 68 d0 bf 07 4f c2 be 62 67 d6 be 98 2f c4 be
       -1.6281826 -0.37950918 -0.4187575 -0.3831756
0001a0 bd 6c 36 be 46 8f ab bd 67 20 16 3e 15 10 ce bd
       -0.17814918 -0.083769366 0.14660798 -0.10061661
0001b0 69 ba ef be 88 ca b7 3d d9 12 af be 62 41 a7 be
       -0.46821907 0.08974177 -0.34194067 -0.3266707
0001c0 09 1a 92 3e 15 34 4e bf 98 1e 01 bf 65 dd fb be
       0.28535488 -0.8054822 -0.5043731 -0.49192348
0001d0 d8 56 d1 be 81 d8 fb be 9d a8 8d be 8f 94 da 3e
       -0.4088657 -0.49188617 -0.27667704 0.42691466
0001e0 b7 21 bd be 0d e4 f2 be 1b b1 fa be 9e 96 25 bb
       -0.36939785 -0.47439614 -0.48963246 -0.0025266777
0001f0 a2 05 e0 bd 20 74 61 bd cf 84 8a be 18 97 a6 3c
       -0.109385744 -0.055042386 -0.2705445 0.020335719
000200 b4 ab f6 bd 75 e3 d2 3d 0d 30 96 3e 6b 74 11 3e
       -0.120444685 0.1029729 0.29333535 0.14204566
000210 62 e8 dd 3d 04 c8 28 bf 34 81 c4 3e 83 ff ab 3d
       0.10835339 -0.659302 0.38379824 0.08398344
000220 5d 81 96 be 3b 93 b1 3e 91 b6 0a 3e c8 3b 30 3e
       -0.2939557 0.3468264 0.13546206 0.17210305
000230 0b bb c7 be f8 f7 de be cc 96 0f be bc 5a ae 3c
       -0.3900989 -0.4354856 -0.14022368 0.0212835
000240 e9 29 ef be 07 39 53 bc ae ce e9 3c 7a c3 26 3e
       -0.46711662 -0.012892014 0.028540935 0.16285506
000250 1a e2 9b 3e 0f c0 2b 3f ce 18 f8 be 50 2b e3 3e
       0.3044594 0.67089933 -0.48456424 0.44368982
000260 e0 89 df 3e bb e1 00 3f 24 aa 1e bf fe a5 d8 be
       0.43659878 0.5034444 -0.61978364 -0.42314142
000270 ca 81 15 bf 53 51 c1 3e 09 ac 6b bd 04 a0 63 be
       -0.5840117 0.37757358 -0.057537112 -0.2222901
000280 0d e6 a7 be 0b 4f 57 3e 32 72 e8 3d 8a bc 43 3e
       -0.32792702 0.21026246 0.11349906 0.1911489
000290 11 3e 04 bf 95 53 15 bf bc ca dd be 8d 20 1a 3f
       -0.51657206 -0.5833066 -0.43318737 0.6020592
0002a0 ba fa f3 be a3 d0 2b 3e 0c cc d7 3c 65 fe dc be
       -0.47652227 0.16778807 0.026342414 -0.43162838
0002b0 eb 33 6c 3d b6 f1 5c 3e 5f bc 91 be ba 9e 83 be
       0.0576667 0.2157658 -0.28464028 -0.25707036
0002c0 60 e4 8d be 96 f7 5d be 5b 9d 98 3d 2e fc fc 3d
       -0.277133 -0.21676478 0.07451888 0.12352787
0002d0 c2 dd 74 bb ec bb ca 3e 4e e0 1b be ca 38 4b 3e
       -0.0037363623 0.39596498 -0.15222284 0.19845882
0002e0 d9 8f cd 3d c6 2b 2b bc e6 8a cc bd 1a 47 c0 be
       0.100372024 -0.010447448 -0.0998743 -0.37554246
0002f0 ce 7c 80 3e 48 87 d6 3d ca f7 1a 3e 9f 37 de 3e
       0.25095218 0.104750216 0.15133587 0.4340181
000300 36 73 8d be 97 49 a7 be f8 b0 27 3f ff c4 b6 be
       -0.2762696 -0.32673332 0.6550441 -0.3569717
000310 ce c6 98 bd 34 9a a2 be d3 c0 13 3f a9 87 10 3f
       -0.07459794 -0.31758273 0.577161 0.56457
000320 4b 4d 2d 3f 7b 7c 4a 3f 2d 38 7b be a8 ad 2e bd
       0.67696065 0.7909619 -0.24533148 -0.04264608
000330 04 3c c9 3e b8 85 49 bc d4 94 a3 be bf 33 ef be
       0.393036 -0.012299947 -0.31949484 -0.46719167
000340 ef f7 c9 3e 70 02 a6 3e a5 fa 9d bf 76 7c 44 3e
       0.3944697 0.32423735 -1.2342116 0.19188103
000350 40 8d d4 3e f8 9f 3c 3c 25 a1 a1 be 4e 8c 45 be
       0.41514015 0.011512749 -0.31568256 -0.19291803
000360 89 b8 1b bf f7 43 3b 3f 58 65 21 bd b1 4c 8a 3d
       -0.60828453 0.7315058 -0.03940329 0.06752909
000370 4a 79 4a 3f 97 c1 02 3f 17 9b c4 be 89 63 eb be
       0.7909132 0.51076645 -0.38399574 -0.45974377
000380 ac c8 06 bf 6c de 5c bd 06 d5 a6 bd b3 fd 65 bd
       -0.5264995 -0.053923056 -0.081461 -0.05615015
000390 4d d4 cd be 56 ea 95 3e 37 83 6b 3e 7f 0e 0b 3f
       -0.40201035 0.29280347 0.22999273 0.54318994
0003a0 45 b3 2d 3e 8a 91 96 3d f7 a0 6f be 81 34 ef be
       0.16962917 0.07351978 -0.23401247 -0.46719745
0003b0 49 07 0b 3f 27 7b 9c be 14 2d 34 3f 74 0b 9f 3e
       0.5430799 -0.30562708 0.70381284 0.31063426
0003c0 c7 94 70 be 4f de 90 be b5 02 2d 3f 08 b4 55 3f
       -0.23494254 -0.28294608 0.67582256 0.8347783
0003d0 fc 18 54 bf c4 48 54 3f 47 9f 92 3e b2 ac 0c 3e
       -0.82850623 0.8292353 0.28637144 0.13737753
0003e0 d4 d1 b9 bd 1b 74 ca 3e fc 05 ff be 24 a3 54 3d
       -0.09073225 0.39541706 -0.49809253 0.051913396
0003f0 a4 28 35 3e d0 01 b0 3e a1 76 53 3e 2b 85 cc 3e
       0.17691284 0.34376383 0.20650722 0.3994535

bias f4 [300]
000000 8d cf d5 be cf 1f b7 3e 1e 45 93 be 61 ae e0 3d
       -0.4175991 0.35766456 -0.2876367 0.1097076
000010 32 3a a2 be d0 8b 60 3f 5d ed 26 be 51 c9 b4 3d
       -0.31685024 0.87713337 -0.16301484 0.088274606
000020 41 82 91 3e ac 96 00 3f a2 fc cf be a5 a5 5f be
       0.28419688 0.5022991 -0.4062243 -0.21840532
000030 8c c0 60 be 9b 05 a1 3e b8 bb fe 3d 36 02 ca 3c
       -0.21948451 0.3144959 0.12438148 0.024659257
000040 86 ec d1 3e 20 d8 69 3e ad dc 72 3e f4 0c 61 3d
       0.41000766 0.22836351 0.23716994 0.054943994
000050 07 3f 25 bd f7 f8 00 be 48 d1 d8 be 53 2f c6 3d
       -0.04034331 -0.12594973 -0.4234717 0.09676995
000060 98 c0 e9 bd a4 43 80 3e f5 c6 26 be 30 93 f3 be
       -0.114136875 0.25051606 -0.16286834 -0.47573233
000070 53 09 b2 3e 18 60 39 bf a4 2d be be 75 90 69 3e
       0.3477274 -0.7241225 -0.37144196 0.22809012
000080 f3 a5 3b be 53 5a b2 be 9a 82 66 3d 89 99 9d 3b
       -0.18325023 -0.34834537 0.056276895 0.0048095626
000090 b2 2c bb be 04 87 1d 3f 8e 47 e9 be db 46 22 3e
       -0.36557537 0.6153414 -0.45562404 0.15847342
0000a0 04 e4 c5 3d 91 40 0d bf 84 ba 16 3f b1 0d f8 3e
       0.09662631 -0.55176646 0.5887835 0.48447946
0000b0 5d 2f 09 bf 3d 30 dc be c8 ca 20 bf 23 f3 14 3f
       -0.53587896 -0.43005553 -0.6280942 0.581835
0000c0 4c 08 9d be ef 7e 9c 3e 8e 31 68 3e 39 82 ff be
       -0.30670393 0.30565593 0.22675154 -0.4990404
0000d0 94 77 74 3f 52 f8 21 3f 0a 2c 22 3f 53 4f e2 bd
       0.9549496 0.6326953 0.6334845 -0.11050286
0000e0 01 96 7c 3d e5 7d 2e bf ff fb 4e 3e e2 a6 c1 3d
       0.061666492 -0.6816085 0.20213316 0.094556585
0000f0 5a 60 68 be b8 1b a4 be 24 5b 20 3e 83 0a 9a 3e
       -0.22693005 -0.32052398 0.15659767 0.30086145
000100 bb 1d fc be 3b fc bf be 02 be 14 bf 1d b6 34 bf
       -0.49241433 -0.37497124 -0.5810243 -0.7059038
000110 46 aa f7 3d 50 4f 13 3e 03 58 3c bf f7 40 e6 be
       0.12093024 0.14385724 -0.73571795 -0.4497144
000120 ec 38 b3 3e 7b 6d f0 be 19 cf dd 3d 9e 3f 64 3f
       0.35004365 -0.46958527 0.10830516 0.8915957
000130 40 89 a4 38 7f 97 85 be 3c 05 9a be b1 28 a9 bc
       7.845694e-05 -0.26092145 -0.3008212 -0.020649286
000140 8f a7 06 3e bf 2c d1 be b6 9f 16 3e 29 09 32 bf
       0.13149856 -0.4085445 0.14709362 -0.6954523
000150 be 49 50 be d6 26 18 3e 9a 1d be be 01 a6 e5 be
       -0.2034063 0.14858565 -0.3713196 -0.44853213
000160 b9 75 76 3d 29 cb 52 be d7 59 87 bd a1 0c 39 3e
       0.060170863 -0.20585312 -0.066089325 0.18071224
000170 18 57 3e be ef c0 78 3e f4 b4 ce 3e 8f db 93 be
       -0.18587911 0.24292348 0.4037243 -0.28878447
000180 f6 61 3d 3e ad fa cf 3c 12 87 f3 be 1d b8 d2 3e
       0.184944 0.025388086 -0.47563988 0.41156092
000190 89 32 fc bc 10 b7 fe be 2d 3e 23 3e 5e 1e a9 be
       -0.030785816 -0.4974904 0.15941687 -0.3303098
0001a0 80 9d 98 3d 38 13 80 bc 0f aa 10 bf 1b 4c c5 be
       0.07451916 -0.015634164 -0.5650949 -0.38534626
0001b0 6c 57 00 bf 91 d0 d6 be 0d c9 e8 3d 92 0b 96 be
       -0.50133395 -0.41956 0.113664724 -0.29305702
0001c0 b1 4e ed be f0 68 86 bd 4a b9 c7 3d b3 e0 13 3f
       -0.463491 -0.06562984 0.09752138 0.5776474
0001d0 4e 65 d4 be 39 ee 30 bd ce 8a ab bc 5b 5a 9e be
       -0.4148354 -0.043195937 -0.02094021 -0.3092831
0001e0 a4 df 67 be 62 8f 02 bf 32 04 8f be ec 6a 0f bf
       -0.22643906 -0.51000035 -0.27932888 -0.56022525
0001f0 64 d3 6b bd 71 ee 0a bd e1 30 43 be f2 ba e1 be
       -0.057574645 -0.0339188 -0.19061615 -0.4408794
000200 95 a3 23 bf 90 27 ac be d0 75 b5 3e b5 37 21 3d
       -0.6392148 -0.33623934 0.35441446 0.039359767
000210 c3 34 94 3e fa 6c c6 3e 74 b3 5a 3e 4c a7 83 3e
       0.28946504 0.38755018 0.21357518 0.25713575
000220 b0 33 ff bd bc 1e 81 3e 87 43 63 3f 1b c7 0c bf
       -0.124610305 0.2521876 0.88774914 -0.5499131
000230 ea 73 87 3e fe 21 d8 3e dc 6d 21 3e 76 13 c8 be
       0.26455623 0.42213434 0.15764564 -0.39077348
000240 fc 72 12 bf 84 c8 c5 3e 43 88 3f be f3 68 6c 3e
       -0.572067 0.38629544 -0.18704323 0.2308691
000250 f8 52 35 bf c6 e9 9b be 83 07 fd 3d 44 70 fe 3e
       -0.70829725 -0.30451792 0.12354948 0.49695027
000260 b9 d0 b8 3e 2c 1f 12 3e a4 10 ac 3e 73 ae b7 3d
       0.36096743 0.14269704 0.33606446 0.089688204
000270 e6 8f 1b 3f 4c f2 e7 be 01 09 e1 3d 5e 91 22 be
       0.60766447 -0.45302045 0.109880455 -0.15875766
000280 94 23 6e 3f 9c 0c 74 bc 02 87 3e 3f 17 2a 34 3f
       0.9302304 -0.014895584 0.74424756 0.70376724
000290 26 b6 5f bd d1 30 11 3e 68 5e ae 3e da 09 56 3e
       -0.05461707 0.14178778 0.340564 0.20902196
0002a0 14 f2 01 3f fe f9 e0 be bc 46 dd be 9c 46 82 3e
       0.50760007 -0.4394073 -0.4321803 0.25444496
0002b0 2e 98 d9 be 29 43 0f bf 43 a3 83 be f5 3a 49 be
       -0.42498916 -0.55961853 -0.25710496 -0.19651397
0002c0 06 d6 30 bf 29 60 3e 3e 94 ca 5c 3e dd 71 71 3f
       -0.69076574 0.1859137 0.21561652 0.94314367
0002d0 5a c6 49 bf 38 ef 2a 3f 2b 96 0a 3e 69 cd 29 3d
       -0.78818285 0.6677127 0.13533847 0.04145566
0002e0 a1 e0 04 3f 87 23 5c 3e 10 30 91 3e 4f c8 0c be
       0.51905257 0.21497928 0.2835698 -0.13748287
0002f0 d9 ed 0f 3f a6 94 25 bf f7 70 c5 be 5e 8b 55 3e
       0.562223 -0.64679945 -0.38562748 0.20853946
000300 5b f2 0f 3f 88 ed da be 21 77 64 be 2a 13 a8 3e
       0.5622918 -0.42759347 -0.22311069 0.3282712
000310 f2 47 55 3f 3f fc f0 be e4 34 4f 3e 02 33 e4 be
       0.83312905 -0.47067448 0.2023502 -0.44570166
000320 d4 68 24 bf bb 49 24 be b0 81 d0 3e c1 1f cc be
       -0.64222455 -0.16043751 0.40723944 -0.39867976
000330 64 da 28 bd 01 7f fb 3e 72 2e ec 3d f4 65 0e 3e
       -0.0412239 0.49120334 0.11532296 0.1390608
000340 ff 01 07 bf 0c 99 8d 3e fc 39 13 3f c8 3e 94 3e
       -0.5273742 0.27655828 0.5751035 0.28954148
000350 9b d0 fc be 19 b5 03 bf f3 ce 1f be b2 d7 bd be
       -0.49377903 -0.5144821 -0.15606289 -0.37078625
000360 7d 03 a9 3d f9 c9 40 3e b3 54 91 3e d4 06 dc be
       0.082526185 0.18827046 0.28384933 -0.4297396
000370 f3 88 e8 bd eb ae 10 bf cc ae 5d 3e 88 53 d7 be
       -0.11354246 -0.56516904 0.21648711 -0.42055917
000380 d0 1b 93 3e 0e dc 8e 3e 54 59 8b 3e e3 1d e5 3c
       0.28732157 0.27902263 0.2721659 0.027968353
000390 b4 d4 ec be 40 44 dc bc ef 86 4a 3e 54 78 c2 be
       -0.4625603 -0.026888013 0.19778036 -0.37982428
0003a0 20 45 c3 3d 9e 93 00 bf 87 fa 12 bf ed 5d 18 3f
       0.09534669 -0.50225246 -0.57413524 0.5951832
0003b0 a9 fd e1 3d 59 58 f4 3d 22 50 0b be 65 8a fe 3d
       0.1103471 0.119309135 -0.13604787 0.124287404
0003c0 99 ca 25 3e dc 8b 6b be 73 f3 e0 be ce 5e 0b bf
       0.16190566 -0.23002571 -0.43935737 -0.54441535
0003d0 d6 e6 1e 3e 20 76 49 3e 0e 35 04 bf 26 11 a7 3e
       0.15517744 0.19673967 -0.51643455 0.3263027
0003e0 5f b1 22 3d e2 4e 0a 3f d5 2c 66 be 9d e9 82 be
       0.039719936 0.54026616 -0.2247804 -0.25568858
0003f0 9f b9 01 bf b0 ea 40 3e d3 a3 0b 3e 87 30 93 be
       -0.5067386 0.18839526 0.13636713 -0.2874796

weight f4 [300]
000000 8c 8a 58 3f af ae 25 3f 0e 53 82 3f af 7a e4 3e
       0.84586406 0.6471967 1.0181596 0.4462485
000010 a7 ec 7d 3f f3 66 0f 3f 09 41 b9 3f 97 d6 e5 3e
       0.9918923 0.56016463 1.4472972 0.44890282
000020 43 33 4c 3f e6 9c 92 3e 37 63 87 3f c9 8e 76 3f
       0.7976572 0.2863533 1.0577153 0.9631162
000030 a0 7f 03 3f 0c 8c 5b 3e 89 e0 c2 3e 30 cb aa 3f
       0.51366615 0.21440142 0.38061932 1.3343258
000040 a8 4a 8a 3e 2e 9f 35 3f 02 0e a9 3f d7 bf 30 3f
       0.27010083 0.70946014 1.32074 0.69042724
000050 c9 c8 4d 3f ba f7 8c 3f de e7 41 3f c0 86 fe 3b
       0.803845 1.10131 0.75744426 0.0077675283
000060 6d 43 54 3d 72 d0 81 3f 23 64 80 3e 40 07 86 3f
       0.051822115 1.0141737 0.25076398 1.0470963
000070 05 3c 85 3f 97 fc cc 3f 5c d9 0b 3f ec e7 46 3f
       1.0408942 1.6014584 0.5462854 0.77697635
000080 f1 3c 79 3f 45 53 1c 3f ee 9a 8d 3f a7 80 18 3f
       0.97358614 0.6106456 1.1062906 0.5957131
000090 c4 e0 10 3f 8d f2 28 3f 5e 36 2e 3f cd 43 92 3f
       0.56592965 0.65995103 0.6805171 1.1426941
0000a0 d0 65 2a 3e 3c e8 45 3f 13 92 7d 3f 0a 4f 18 3f
       0.16640401 0.77307487 0.99051017 0.59495604
0000b0 0a 1d bd 3f ed a7 d7 3e 1c 62 8f 3f aa f2 e7 3e
       1.4774487 0.42120305 1.1201816 0.45302325
0000c0 33 a3 61 3f bd 34 3f 3f 17 f3 b3 3e b4 11 91 3f
       0.8813965 0.7468985 0.351464 1.1333528
0000d0 e3 a2 e4 3e 95 3e 4a 3f ab 55 8b 3e 8b 92 30 3f
       0.44655523 0.7900174 0.27213797 0.68973607
0000e0 36 93 14 3f 72 3c a0 3f 21 a7 52 3f 32 2e eb 3e
       0.58037126 1.2518446 0.8228627 0.45933682
0000f0 1b 90 08 3e 80 f6 b9 3f cc 2e 7c 3f fe 89 c2 3e
       0.13336222 1.4528351 0.98508906 0.37995905
000100 b0 c8 7b 3f e0 0a 4b 3f 83 1f 51 3f 75 c2 c9 3f
       0.983531 0.7931347 0.8168871 1.5762469
000110 b1 56 78 3f 24 ab 8e 3f 33 45 a8 3f e4 e0 a1 3f
       0.9700728 1.1145978 1.3146118 1.2646756
000120 96 c6 60 3f 80 98 88 3f 43 70 61 3f 15 61 17 3f
       0.8780302 1.0671539 0.8806192 0.5913251
000130 ac 23 8c 3f b6 f9 96 3f 76 f4 79 3f 86 39 39 3f
       1.0948386 1.1794956 0.9763864 0.723534
000140 12 88 b3 3e 7f 84 5c 3f ad f4 79 3e d8 52 b5 3f
       0.3506475 0.86139673 0.24409743 1.4165907
000150 7d 28 de 3e ff 0b 3c 3f d4 53 8a 3f 7a 0e 3f 3f
       0.43390265 0.73455805 1.0806832 0.74631464
000160 8e 81 38 3f f6 fa 41 3f 8b f4 ac 3e d8 a5 90 3e
       0.72072685 0.7577356 0.3378032 0.2825153
000170 6f 40 d7 3e 6e 90 bd 3d 4f c3 0b 3f 72 d4 24 3f
       0.42041346 0.092560634 0.5459489 0.64386666
000180 42 e4 7e 3f e9 cf 53 3f 47 9a f0 3e 3f 8e 93 3f
       0.99567044 0.8273912 0.46992704 1.1527785
000190 47 32 69 3e e1 ca 66 3f 10 7b 3c 3f 52 e2 50 3f
       0.22773086 0.9015332 0.7362528 0.8159534
0001a0 3f fa 1b 3f b9 8c 1c 3f 0d ab ad 3f 6d 27 0f 3f
       0.6092872 0.61152226 1.3567826 0.55919534
0001b0 17 d1 89 3f bb 61 c6 3e c1 58 9c 3f 6b 7f 90 3e
       1.0766934 0.38746437 1.2214586 0.28222212
0001c0 fb c7 95 3f 2f 6f 30 3f 63 c0 45 3f 7f f0 28 3f
       1.1701654 0.6891965 0.77246684 0.6599197
0001d0 f0 3a 06 3e 1d 6d c1 3f 3c b7 97 3f 55 45 ae 3f
       0.1310842 1.5111424 1.1852794 1.3614908
0001e0 e4 81 49 3f 77 4e 00 3f 2f 8e 92 bc 4e de 03 40
       0.7871382 0.5011973 -0.017890064 2.0604434
0001f0 bf 9f 74 3f a6 23 19 3f bc 50 36 3e ad 38 7e 3f
       0.95556253 0.5982002 0.17804235 0.9930523
000200 d6 f2 87 3f 8c b3 58 3f 6d 5e a0 3e f0 d1 39 3f
       1.0620983 0.84648967 0.3132204 0.72585964
000210 dd d3 2b 3f 68 53 5e 3f a5 d4 bc 3c 84 9f 8b 3f
       0.6712015 0.8684602 0.023050616 1.0908055
000220 24 79 80 3f ec 14 49 3f 36 fc 46 bc de 33 1a 3f
       1.0036969 0.7854755 -0.012145093 0.60235393
000230 68 47 15 3f 98 bb 47 3f 42 a1 1f 3f ef b7 b5 3f
       0.5831208 0.7802062 0.62355435 1.4196757
000240 9f 50 67 3f 6f 3c 89 3f 5a e4 76 3f 62 b1 b6 bb
       0.90357393 1.0721568 0.96442187 -0.005575345
000250 91 10 7a 3e 92 80 27 3f ee 03 29 3f d3 23 06 3f
       0.24420382 0.6543056 0.6602162 0.52398413
000260 e8 46 28 3e 89 a1 64 3f c0 1c 1e 3e 03 87 0b 3f
       0.16433299 0.89308983 0.15440655 0.54502887
000270 83 53 b5 3e ee 04 1a 3f 49 52 97 3f 2f 31 56 3f
       0.35415277 0.6016377 1.1821986 0.836688
000280 8d eb 89 3e 70 cc c1 3c e8 88 ed 3e a4 26 88 3f
       0.26937523 0.023657054 0.46393514 1.0636792
000290 97 9b b6 3e 7f 06 81 3f d7 10 01 3f 5e 30 4b 3f
       0.3566558 1.0080107 0.5041632 0.7937068
0002a0 61 13 58 3f 54 0c 52 3f 88 e9 95 3e dc 5a 1e 3f
       0.8440457 0.8205006 0.29279733 0.6185739
0002b0 63 65 2c 3f 5a 3f 7a 3f 01 d4 4e 3f 10 e0 17 3f
       0.67342204 0.97752917 0.8079224 0.5932627
0002c0 51 7f 9a 3f 2d 21 f2 bc c9 ee b0 3f 0f 84 c1 3e
       1.2070104 -0.029556835 1.3822871 0.37796065
0002d0 d3 cf cd 3f 3f de 2b 3f 93 01 31 3f c5 d9 2e 3f
       1.6079048 0.67135996 0.6914303 0.6830104
0002e0 0b 22 54 3f f7 b4 5e 3f bd 26 3b 3f 85 70 9c 3f
       0.82864445 0.8699488 0.73105985 1.2221838
0002f0 3f ec 25 3f a6 cc d7 3f 06 0a 9e 3f 9e de 8d 3f
       0.6481361 1.6859329 1.2346809 1.1083562
000300 f5 8e 77 3f e1 36 9d 3f 7b ef a2 3f ae 6e 19 3f
       0.9670251 1.2282373 1.2729334 0.5993451
000310 ae 4a c2 3e 1d a5 51 3f e0 ea 82 3f aa c0 09 3f
       0.379476 0.8189257 1.0227928 0.5380961
000320 df f2 59 3f 35 7e 2c 3f 47 5c a6 3e d6 d1 31 3f
       0.85136217 0.67380077 0.32492277 0.6946081
000330 09 b1 45 3f 99 78 be 3d 8e 93 44 3f ae dc 27 3f
       0.7722326 0.09300346 0.7678765 0.65571105
000340 81 c5 82 3f 8f e2 74 3f 3b e4 ac 3e 39 dc 8e 3f
       1.0216523 0.956582 0.33767876 1.1160957
000350 13 ed 74 3f af 40 02 40 e3 a3 9d 3f ad 26 94 3d
       0.95674247 2.035198 1.2315639 0.07233939
000360 4c e1 c3 3e ed 72 42 3f 47 4f 71 3f e0 ab 8b 3f
       0.38257825 0.7595661 0.9426159 1.0911827
000370 ac 30 d0 3e 02 b0 b0 3f 4b ef 23 3f 68 1e 40 3f
       0.40662134 1.3803713 0.6403701 0.75046396
000380 fc 42 2e 3e 26 75 57 3f 55 62 01 3f 26 ed 38 3f
       0.1701774 0.8416313 0.5054067 0.7223686
000390 6f 90 50 3f bf 73 83 3f 6d 18 53 3f d5 71 17 3f
       0.8147039 1.0269698 0.82459146 0.5915807
0003a0 cb 64 92 3f 92 ca 53 3f a4 6e 53 3f 0f 0b 17 bd
       1.143701 0.8273097 0.825907 -0.03687578
0003b0 86 bb 32 3f e0 c5 81 3c 23 07 96 3d 19 9a 2a 3f
       0.6981739 0.015841424 0.0732558 0.66641384
0003c0 ac 8f 26 3f bf df a1 3f 3b a8 59 3f e4 ca 13 3f
       0.65062976 1.2646407 0.85022324 0.5773146
0003d0 3d 52 5d 3f ac 61 3e 3f 67 89 86 3f 3e 49 29 3f
       0.8645361 0.74367785 1.0510682 0.66127384
0003e0 e9 36 85 3f 41 d9 2e 3f e8 07 2a 3f db ce 24 3f
       1.0407382 0.68300253 0.66418314 0.64378136
0003f0 50 90 87 3f 2d 87 50 3c af 41 54 3f fc 27 00 3f
       1.0590916 0.012727541 0.82912725 0.5006101

bias f4 [300]
000000 7f 30 23 be ed 0a 9d be 16 26 1f be 3e 59 0e 3e
       -0.15936469 -0.30672398 -0.15541872 0.1390123
000010 d0 f6 0e bc b2 f2 86 be be 38 2c 3e 98 6b a9 3e
       -0.008725837 -0.26357037 0.1681852 0.330899
000020 c6 63 b5 3e 45 82 7e be 19 b2 f3 3d 9f d1 25 3e
       0.35427684 -0.24854381 0.11899204 0.16193245
000030 25 b2 94 3d b9 c6 49 bc b7 09 b9 3e bc 27 91 be
       0.07260541 -0.012315446 0.36140224 -0.28350627
000040 ef e1 b9 3e 30 8a d3 3e 3c cd bb 3e be d0 93 3e
       0.36305186 0.41316366 0.3668002 0.28870195
000050 d4 ef 36 3e 19 b5 8d 3e 52 43 44 3e 4a 62 9a 3c
       0.17864925 0.2767723 0.19166306 0.018845696
000060 a6 a6 b5 3d 04 04 87 3e 87 07 6f 3e ba 6d 96 bd
       0.08869676 0.2637025 0.23342715 -0.073451474
000070 6d 17 ba 3e e9 08 4c 3e d2 f7 fe 3d 73 44 8b be
       0.36345997 0.19925274 0.12449612 -0.2720066
000080 91 44 98 be a4 35 81 3e 74 fb ca 3d 25 84 c8 3d
       -0.29739812 0.25236237 0.09911242 0.097908296
000090 a7 5e 8b bc 29 df d5 bd bb 7b 95 3e 14 d2 39 3e
       -0.017012907 -0.10442955 0.2919596 0.18146545
0000a0 3a be 0b 3d 5d 8e c0 3e b7 75 bd 3e d5 f4 4d be
       0.03411696 0.37608615 0.37003872 -0.20112927
0000b0 b8 07 d7 bc 08 f0 25 3c 27 89 28 be 01 c3 93 3e
       -0.026248798 0.010128029 -0.1645857 0.28859714
0000c0 01 1d 14 be 7d 85 82 be 0c be b8 3e b3 51 d8 bc
       -0.14464189 -0.25492468 0.36082494 -0.026406145
0000d0 84 2c 4f be ca d2 b6 3e 01 90 19 bd aa f5 8c 3e
       -0.20231825 0.35707694 -0.03749085 0.27531177
0000e0 84 20 56 be 0a a1 05 bd 2c 9a ba 3b be 01 9b 3e
       -0.20910841 -0.032624282 0.0056946483 0.30274767
0000f0 2f f9 85 3d fd 71 26 3e 75 fd ae 3e 7c 4d 3f be
       0.065416686 0.1625442 0.34177747 -0.18681902
000100 a3 77 ab bc d4 26 6c 3d a2 0b 07 3b da b6 eb 3d
       -0.02093107 0.057654217 0.00206063 0.115094855
000110 67 58 0b be 47 7a 25 be 5b 00 24 3e 58 ec 15 3e
       -0.13607942 -0.16159926 0.1601576 0.14640939
000120 04 a6 5e 3e a0 c3 e3 3c 3d 22 5f 3e 32 74 e6 bd
       0.21743017 0.027803242 0.21790405 -0.11252631
000130 84 82 8c be 4f a6 5e 3e 9e f7 3b be 0d 32 17 be
       -0.27443326 0.21743129 -0.18356177 -0.14765187
000140 62 1a 23 3e ea f3 8e be 85 fb b8 3e cd 66 17 be
       0.15928033 -0.27920467 0.36129394 -0.14785309
000150 ad 9f 6a bd bd 47 4f be 5e b2 85 3e ff ea 20 be
       -0.057281185 -0.2024221 0.26112646 -0.15714644
000160 1c 49 d8 3d 38 51 9b bd cf da d5 3d 49 b6 49 3e
       0.105608195 -0.075838506 0.10442125 0.19698443
000170 58 60 07 3e a2 5e d3 bd 4d 4d c7 3e 78 97 41 be
       0.13220346 -0.10320784 0.38926163 -0.18905437
000180 40 fc 26 3e 69 7d 97 be 44 ab 94 3d 95 fa d6 3e
       0.16307163 -0.29587868 0.07259229 0.41988054
000190 a2 33 2e 3e 92 d9 06 bd 0c 55 a2 bd b7 7a 55 be
       0.17011884 -0.032922335 -0.07926378 -0.20847593
0001a0 4f d5 6c 3e 5a 6a cc 3e 5f 2b dd bd 7a fb 87 bc
       0.23128246 0.3992489 -0.10799288 -0.016599406
0001b0 46 39 ae 39 00 8f 50 3e ac 3d 0b 3d 64 21 cb 3d
       0.00033230538 0.2036705 0.03399436 0.09918478
0001c0 9f 4c da 3d 84 8c e8 bd e2 7d 67 3e 26 6f 84 3e
       0.106591456 -0.11354926 0.22606614 0.2586605
0001d0 de 2c ef 3d 6f 20 83 be 91 92 e4 3d f2 d4 80 be
       0.116784796 -0.25610682 0.11160768 -0.25162464
0001e0 eb 9a 99 be b8 a5 1e bd 06 0e 13 3d 8e ce 13 3e
       -0.30001006 -0.03873226 0.035902046 0.14434263
0001f0 35 81 b1 be cc f9 99 3c 81 ee 6b 3e f3 4c 1e 3e
       -0.3466889 0.01879587 0.23040201 0.15459041
000200 ef 40 6c 3d ea 1a 42 bc 78 5b 64 be ea a8 24 be
       0.057679113 -0.011847237 -0.22300518 -0.1608006
000210 b5 a7 95 3e 54 21 9f be 02 f5 7a bc 0d 20 d9 3d
       0.29229513 -0.31080115 -0.0153172035 0.10601816
000220 0e 4e 21 3e 59 46 16 3e ed bf 88 bd b1 36 0f bc
       0.15752432 0.14675273 -0.06677232 -0.008741067
000230 8c 94 c1 bd 26 45 c2 3e 6f 73 50 be da 99 52 3d
       -0.09452161 0.3794338 -0.20356534 0.051416256
000240 f9 00 3c 3d 45 8e 80 be 05 04 72 be 9b 88 a8 3d
       0.045899365 -0.25108543 -0.23634346 0.082291804
000250 6b 65 1d 3d 29 c3 b9 3d bd 27 65 3e 4a ac e1 b9
       0.038426798 0.09070427 0.2237844 -0.0004304371
000260 ff c4 f7 bd ff 86 98 3e da b9 fe bc b5 32 82 3e
       -0.12098121 0.29790494 -0.03109448 0.2542931
000270 f7 93 a7 3e 8e cd 5e 3e 88 c1 9c be fc 77 52 3e
       0.32730076 0.217581 -0.30616403 0.20553583
000280 b4 c6 06 be e1 ff 40 3e 45 91 56 bd 8d 1a a5 3e
       -0.13161737 0.1884761 -0.052384634 0.3224682
000290 ca 60 a6 bc 68 9f 80 3e 32 07 8d 3e 48 30 b3 be
       -0.020309824 0.25121617 0.27544552 -0.34997773
0002a0 fd 4d 04 bd 06 53 99 bc 0b 65 a9 bc fc db b1 3e
       -0.032300938 -0.018716346 -0.020678064 0.34738147
0002b0 1d 69 4d bc 7e b4 9b bc b6 0a e2 3d 25 65 7d 3d
       -0.012537268 -0.019006964 0.11037199 0.061864037
0002c0 d7 dc 2c 3e 89 67 d7 bc 69 0a ae be 66 d8 68 be
       0.16881119 -0.026294487 -0.33992317 -0.227388
0002d0 08 30 1d 3e 0f 26 03 be 20 54 6f bd 21 d3 79 3e
       0.15350354 -0.12807487 -0.058429837 0.24396946
0002e0 05 5d 4c be b9 3e f9 bd 93 fc a1 3e 78 d5 3e 3d
       -0.19957359 -0.121701665 0.3163801 0.0465903
0002f0 04 25 9e 3e 89 e9 28 3e 17 6e 81 be 0e 88 a8 3e
       0.30887616 0.16495337 -0.25279304 0.329163
000300 1d 18 cb 3e b7 00 08 be fe c5 5c 3e 7d 8e 7f 3e
       0.39666834 -0.13281523 0.21559903 0.24956699
000310 90 b6 8f be fc 28 e6 bd d9 93 60 3e d7 21 17 3e
       -0.28068972 -0.11238286 0.219314 0.14759003
000320 b6 47 25 3d 21 eb 90 be 60 41 ee bd ad 5e 8c 3c
       0.040351592 -0.2830439 -0.11633563 0.017134989
000330 5b 0d 6c 3d b6 c8 9d bc 8c 11 82 3e b6 0f 98 3e
       0.057629924 -0.019260745 0.25404012 0.29699486
000340 21 ac 38 3c 2c dd 61 be 58 46 9f 3e da 5c f4 3d
       0.0112715075 -0.22057027 0.31108356 0.119317725
000350 18 6c 83 bd bc 67 ac 3d 0b c0 73 3e f7 e2 05 3e
       -0.064171016 0.08418223 0.23803727 0.13074861
000360 98 1d 78 3e c7 73 88 3e 27 d9 ac 3e 9e 11 93 3e
       0.24230039 0.2665083 0.33759424 0.28724378
000370 7a bb 9d bb 37 25 b3 3d a5 62 83 3e 18 74 95 3c
       -0.0048136087 0.087473325 0.25661197 0.018243834
000380 f6 14 82 3e 0d 8e 70 3e 6e 2d 17 be 27 27 91 3e
       0.25406617 0.23491688 -0.14763424 0.28350183
000390 7e 74 12 be 2b 42 68 3e 3c e3 fa bb 09 49 a4 3e
       -0.1430225 0.22681491 -0.007656483 0.3208697
0003a0 29 c5 24 3e 2e c0 32 be 90 a2 ea 3c 46 c6 a3 bd
       0.16090836 -0.17456123 0.028641969 -0.07996802
0003b0 04 9a 67 3e ea f5 14 bc d4 ab 69 3d 2f 21 37 be
       0.22617346 -0.009091834 0.057048634 -0.17883752
0003c0 c6 71 86 bd 42 d8 e5 3d 6c 14 55 3c 93 23 92 3d
       -0.06564669 0.112228885 0.013005357 0.071356915
0003d0 a7 b9 9a 3d c8 f9 1a 3d b8 1e 63 3c 25 40 bc 3e
       0.075549416 0.037835866 0.013862304 0.36767688
0003e0 ed 71 77 3e 0c 2c 96 3e cf 4f d1 bd 19 97 90 bd
       0.24164553 0.2933048 -0.102203004 -0.070600696
0003f0 4d 3f 83 3e b5 54 9a bb 3a 54 91 3e 28 e2 8f bd
       0.25634232 -0.004709805 0.28384572 -0.07025558

running_mean f4 [300]
000000 9c 12 0b 3e 41 89 7d 3e 03 90 80 36 02 5c 8f 3f
       0.13581318 0.2475939 3.8314624e-06 1.1199954
000010 58 e1 37 3a c8 70 81 3f b7 d2 61 3f c2 0a cf 3f
       0.0007014475 1.0112543 0.8821215 1.6175158
000020 ed 25 ec 3f 4d 70 29 3f 39 42 a1 3b 80 fb 64 3c
       1.8449074 0.6618698 0.0049212244 0.013975978
000030 e3 79 ad 3c 65 05 fd 3d b0 f4 00 40 9d 40 80 3e
       0.021176284 0.123545446 2.0149345 0.25049296
000040 e0 22 0b 40 c9 ee bb 3f ee 93 39 3f 4f da 02 40
       2.1740036 1.4682246 0.7249135 2.0445745
000050 8c 88 8e 3d 7f ea 35 3d cd 77 ad 3e 1c 24 80 3d
       0.06959638 0.044413086 0.33880463 0.06256887
000060 85 83 a3 3f 1c db f8 3f dd 5d 78 3f e9 7c 14 35
       1.2774512 1.9441867 0.97018224 5.5316065e-07
000070 2c a1 e7 3f 42 58 80 3c 19 1a bd 3d 68 65 56 3e
       1.8096061 0.015667085 0.09233493 0.20937121
000080 e0 2f d0 3d b9 2c b9 3d 13 03 af 3e 17 ba 18 3f
       0.101653814 0.09041733 0.34182033 0.5965895
000090 04 00 00 00 74 dd c5 3e 6d 63 da 3d 69 63 a0 3e
       6e-45 0.38645518 0.10663495 0.31325844
0000a0 8f 19 c5 3d 28 f4 ee 3e d5 9e 02 40 68 a4 88 3e
       0.096240155 0.4667065 2.0409443 0.26687932
0000b0 6f ab 02 37 bd 02 28 3c 6c 2e 3a 05 d2 a0 d8 3f
       7.788519e-06 0.010254559 8.754204e-36 1.6924078
0000c0 bd 33 33 3e d3 89 0b 3e 22 13 0d 40 e6 df ab 3d
       0.17500205 0.13626795 2.2042928 0.083923146
0000d0 64 ae 7b 3f a9 90 07 40 fd 49 d2 3e 18 a5 82 3f
       0.98312974 2.1182044 0.41072074 1.0206633
0000e0 74 18 eb 3d 94 ca 42 3d 60 1c 7c 3d aa 8c f4 3f
       0.114792734 0.047556475 0.061550498 1.9105427
0000f0 3e d7 68 3f fd ef df 3d fc b9 a1 3f 5b a3 f7 3d
       0.90953434 0.10934446 1.2634883 0.120917045
000100 2c a9 4a 04 04 00 00 00 04 00 00 00 af ee 2c 3c
       2.3822666e-36 6e-45 6e-45 0.0105549535
000110 73 a3 81 3d 25 6c 4e 3d 72 53 ef 3c 3a c2 45 3d
       0.063300036 0.050396103 0.029214595 0.048280932
000120 b6 18 ea 3f 04 00 00 00 01 a7 b9 3f 5b 1b 73 3f
       1.8288791 6e-45 1.450409 0.94963616
000130 f6 a3 98 3d 6f 19 61 3d 9d 54 40 3a 46 95 79 3d
       0.07453148 0.054955896 0.0007336827 0.060933374
000140 95 60 8e 3d 3a 36 c9 3b ab 10 cd 3f 0a 4b 58 30
       0.06952015 0.0061404975 1.6020712 7.868698e-10
000150 73 c6 89 3d 1a 48 ea 3d 90 d4 4c 3e 28 20 54 38
       0.06727304 0.114395335 0.20002961 5.0574687e-05
000160 ce b8 75 3d 04 00 00 00 13 88 32 3d 75 a8 dc 3f
       0.059990697 6e-45 0.0435868 1.7238909
000170 c7 8a af 3b 59 8b 2c 3e e9 87 a7 3f 76 8b 7f 3c
       0.0053571197 0.16850032 1.3088351 0.015597215
000180 26 8d d7 3f 90 cc f2 3e 4e 9e 07 37 4d 75 ee 3f
       1.683995 0.47421694 8.083485e-06 1.8629547
000190 4f bd 0f 3f de d2 49 3e 8f 99 ff 3d 08 ca 4a 3b
       0.56148237 0.19709346 0.12480461 0.0030943174
0001a0 0f 84 ce 3f 2f 28 23 3f 0d cc 34 1f f5 e5 0c 3d
       1.6134051 0.6373319 3.828527e-20 0.03439899
0001b0 a1 d0 72 39 a4 98 1c 3e 8d 00 b4 3d b7 49 11 3e
       0.00023156639 0.15292603 0.087891676 0.14188276
0001c0 01 d8 3c 3c 9c 64 98 3e 66 b9 e8 3f 1e 2b fa 3f
       0.011526109 0.2976426 1.8181579 1.9544408
0001d0 80 9f 9d 3d 2a b2 63 3e 6e 5e 1b 3e 9f dc 0e 3e
       0.07696438 0.22235933 0.15172741 0.13951348
0001e0 98 43 ee 3c 79 71 88 09 66 7b 45 3e 34 25 ff 3d
       0.029084966 3.284752e-33 0.19285354 0.12458268
0001f0 fa 34 2e 3e a1 20 f5 3d 18 8a 21 3f 2a 77 ac 3e
       0.17012396 0.11969114 0.6310134 0.33684665
000200 c2 6e af 3a d7 23 a9 3c bd ab b5 3e 8d 73 c1 3d
       0.0013384449 0.020646973 0.35482588 0.09445868
000210 2b ca dd 3f e0 6d 61 3e fc 31 61 3e 4f 14 bb 3f
       1.7327322 0.2201457 0.21991724 1.4615573
000220 74 7f a9 3f cc f7 e9 3f d2 c8 04 40 a3 8b 99 12
       1.3242021 1.8278747 2.074757 9.690081e-28
000230 63 7b d5 3d 4a 7e 04 40 a3 33 96 3d 68 71 39 3e
       0.10423925 2.070208 0.07334068 0.18109667
000240 21 45 9b 3c 79 5f 72 3e 4a 70 d0 3e c8 ce 03 40
       0.018953862 0.23669232 0.4071067 2.059496
000250 ca 70 1a 22 ed 9d a0 3d 44 16 d0 3f d5 a2 d4 3e
       2.0930602e-18 0.07842622 1.6256795 0.4153048
000260 03 33 39 3e 64 47 b2 3f 9f f8 14 3e 37 96 e1 3f
       0.18085866 1.3928037 0.14547966 1.7623967
000270 23 d5 07 40 2e 93 c9 3c 0a 33 05 3e 34 63 ac 3e
       2.1223838 0.024606314 0.13007751 0.33669436
000280 03 db 54 3f 4c 02 8f 3f 02 66 fd 3e d2 45 03 40
       0.83146685 1.1172576 0.49491888 2.0511365
000290 d2 05 79 3d 18 13 a0 3f 5c 7f ee 3f c3 f2 73 3e
       0.060796566 1.2505827 1.8632617 0.23823075
0002a0 6e 8c 17 3e ca a6 ce 3a 1e fa 19 3b 20 84 c4 3f
       0.14799663 0.001576626 0.0023495029 1.5352821
0002b0 1c b5 ce 3c d4 5a fb 3b 56 66 27 3e 6c ca 2c 3e
       0.025232844 0.0076707397 0.16347632 0.16874093
0002c0 5a b9 ae 3b f0 e6 43 3e 47 54 1d 3e 9c 22 76 3f
       0.005332154 0.19131064 0.1536418 0.9614656
0002d0 da 14 49 38 02 7a f0 3e 9e a1 20 3f 8c 89 c7 3f
       4.7941554e-05 0.46968085 0.6274661 1.5588851
0002e0 c0 c3 8c 3e c7 ae 65 3d 76 e7 d2 3f 29 8d db 3c
       0.27493095 0.056074884 1.6476886 0.026800709
0002f0 21 1d f6 3f b4 6e ac 3a 32 f5 36 3d 59 6d a2 3f
       1.922764 0.0013155551 0.04466743 1.268962
000300 e8 2c 1e 40 42 fc 09 3b bc 05 1b 3f a3 98 e1 3f
       2.4714909 0.0021054898 0.60555625 1.7624706
000310 48 e8 70 3f 68 fa 99 3a 58 9c f0 3f 03 5f d5 39
       0.94104433 0.00117476 1.8797712 0.00040697315
000320 04 00 00 00 51 14 7a 3e 2c 60 49 3e 04 00 00 00
       6e-45 0.24421813 0.19665593 6e-45
000330 c5 c7 14 3e 80 5c 2e 3e c9 34 db 3f 5f 7e 64 3f
       0.14529331 0.17027473 1.7125484 0.89255327
000340 f7 5b e3 39 1f ad 1b 3e 2f 1d 21 40 44 6f ee 3f
       0.00043365333 0.15202759 2.5174062 1.8627706
000350 fe 59 b3 2c bb 98 1e 3d db 12 6a 3f 30 94 3e 3e
       5.097477e-12 0.038719874 0.9143502 0.18611217
000360 57 e6 49 3f 1c d2 97 3f 51 79 a8 3f 99 33 a8 3d
       0.78867096 1.1860995 1.3162023 0.082129665
000370 f6 65 c3 3d a8 f4 80 3d d8 22 dd 3f 04 00 00 00
       0.09540932 0.062966645 1.7276258 6e-45
000380 52 c2 d0 3f 2a 02 a1 3f ee 74 ed 3d 8a b2 b6 3f
       1.6309302 1.2578785 0.11594568 1.4273236
000390 fa 1a 9d 3d 35 df e7 3f 8f f2 cb 3d 8c a2 50 3e
       0.07671161 1.8114992 0.09958374 0.20374507
0003a0 4d 29 82 3f 1c fe fa 33 04 00 00 00 85 1b 80 3f
       1.0168854 1.16877544e-07 6e-45 1.0008398
0003b0 02 b7 f0 3f 78 c7 34 3e 8d ff 84 3e 5f 3a e1 3d
       1.880585 0.17654216 0.2597622 0.109974615
0003c0 ee e3 ee 3c 6f 41 be 3e 71 73 49 3b 1e 94 01 3b
       0.02916142 0.37159297 0.0030738974 0.0019772123
0003d0 e5 65 6f 3e 5b 55 e4 3d cd ab 15 38 11 54 f0 3f
       0.23378713 0.11149093 3.568437e-05 1.8775655
0003e0 9e 96 bf 3f 06 f6 1a 40 82 50 0b 39 04 00 00 00
       1.496784 2.421266 0.00013286064 6e-45
0003f0 c2 73 b5 3c 19 f0 7c 3d 68 f3 fb 3f fb d1 7b 3b
       0.022149924 0.061752412 1.9683657 0.0038424719
